…
[2026-03-25 16:48:22,975][qinco.utils][INFO] - Test set: (50000, 128)
[2026-03-25 16:48:23,459][qinco.utils][INFO] - Optimizing decoder
[2026-03-25 16:48:27,103][qinco.utils][INFO] - Warmup decoder
[2026-03-25 16:48:31,480][qinco.utils][INFO] - Done for decoder
[2026-03-25 16:48:31,480][qinco.utils][INFO] - Optimizing encoder
[2026-03-25 16:48:35,108][qinco.utils][INFO] - Warmup encoder
[2026-03-25 16:48:39,772][qinco.utils][INFO] - Done for encoder
[2026-03-25 16:48:39,775][qinco.utils][INFO] - Model:
QINCoInferenceWrapper(
  (qinco_model): QINCo(
    (steps): ModuleList(
      (0): QINCoStep(
        (codebook): Embedding(256, 128)
      )
      (1-7): 7 x QINCoStep(
        (substep): QincoSubstep(
          (codebook): Embedding(256, 128)
        )
        (codebook): Embedding(256, 128)
        (concat): QConcat(
          (mlp): Linear(in_features=512, out_features=384, bias=True)
        )
        (residual_blocks): Sequential(
          (0): QBlockFFN(
            (up_proj): Linear(in_features=384, out_features=384, bias=False)
            (act): ReLU()
            (down_proj): Linear(in_features=384, out_features=384, bias=False)
          )
          (1): QBlockFFN(
            (up_proj): Linear(in_features=384, out_features=384, bias=False)
            (act): ReLU()
            (down_proj): Linear(in_features=384, out_features=384, bias=False)
          )
          (2): QBlockFFN(
            (up_proj): Linear(in_features=384, out_features=384, bias=False)
            (act): ReLU()
            (down_proj): Linear(in_features=384, out_features=384, bias=False)
          )
          (3): QBlockFFN(
            (up_proj): Linear(in_features=384, out_features=384, bias=False)
            (act): ReLU()
            (down_proj): Linear(in_features=384, out_features=384, bias=False)
          )
          (4): QBlockFFN(
            (up_proj): Linear(in_features=384, out_features=384, bias=False)
            (act): ReLU()
            (down_proj): Linear(in_features=384, out_features=384, bias=False)
          )
          (5): QBlockFFN(
            (up_proj): Linear(in_features=384, out_features=384, bias=False)
            (act): ReLU()
            (down_proj): Linear(in_features=384, out_features=384, bias=False)
          )
          (6): QBlockFFN(
            (up_proj): Linear(in_features=384, out_features=384, bias=False)
            (act): ReLU()
            (down_proj): Linear(in_features=384, out_features=384, bias=False)
          )
          (7): QBlockFFN(
            (up_proj): Linear(in_features=384, out_features=384, bias=False)
            (act): ReLU()
            (down_proj): Linear(in_features=384, out_features=384, bias=False)
          )
          (8): QBlockFFN(
            (up_proj): Linear(in_features=384, out_features=384, bias=False)
            (act): ReLU()
            (down_proj): Linear(in_features=384, out_features=384, bias=False)
          )
          (9): QBlockFFN(
            (up_proj): Linear(in_features=384, out_features=384, bias=False)
            (act): ReLU()
            (down_proj): Linear(in_features=384, out_features=384, bias=False)
          )
          (10): QBlockFFN(
            (up_proj): Linear(in_features=384, out_features=384, bias=False)
            (act): ReLU()
            (down_proj): Linear(in_features=384, out_features=384, bias=False)
          )
          (11): QBlockFFN(
            (up_proj): Linear(in_features=384, out_features=384, bias=False)
            (act): ReLU()
            (down_proj): Linear(in_features=384, out_features=384, bias=False)
          )
          (12): QBlockFFN(
            (up_proj): Linear(in_features=384, out_features=384, bias=False)
            (act): ReLU()
            (down_proj): Linear(in_features=384, out_features=384, bias=False)
          )
          (13): QBlockFFN(
            (up_proj): Linear(in_features=384, out_features=384, bias=False)
            (act): ReLU()
            (down_proj): Linear(in_features=384, out_features=384, bias=False)
          )
          (14): QBlockFFN(
            (up_proj): Linear(in_features=384, out_features=384, bias=False)
            (act): ReLU()
            (down_proj): Linear(in_features=384, out_features=384, bias=False)
          )
          (15): QBlockFFN(
            (up_proj): Linear(in_features=384, out_features=384, bias=False)
            (act): ReLU()
            (down_proj): Linear(in_features=384, out_features=384, bias=False)
          )
        )
        (in_proj): Linear(in_features=128, out_features=384, bias=False)
        (out_proj): Linear(in_features=384, out_features=128, bias=False)
      )
    )
  )
  (encoder): RecursiveScriptModule(original_name=QINCoInferenceEncoder)
  (decoder): RecursiveScriptModule(original_name=QINCoInferenceDecoder)
)
[2026-03-25 16:48:39,775][qinco.utils][INFO] - ====================== RUNNING TASK eval
[2026-03-25 16:50:04,361][qinco.utils][INFO] - Warm-start with 10 batches: done
[2026-03-25 16:52:14,501][qinco.utils][INFO] - Test metrics: [[MSE=0.810867]]
…
